frontend/lib/model/model_outputs_A/best_phoneme_model_A.pth (torch, 29017 bytes, 6 tensors)

fc1.weight f4 [128, 15]
0	0x3f18cbef	0.5968618
1	0xbea18147	-0.31543943
2	0xbc078a8f	-0.008272781
3	0x3f1f6cbc	0.6227529
4	0x3e0fa26a	0.140268
5	0xbf0095b1	-0.5022841
6	0x3ec990fa	0.3936842
7	0x3f05db4e	0.5228776
8	0x3ed951e3	0.42445287
9	0xbf204884	-0.6261065
10	0xbf0be3d1	-0.54644495
11	0xbf018d49	-0.5060621
12	0x3e6823ef	0.22669958
13	0x3dcd169d	0.10014079
14	0xbdc6756b	-0.096903645
15	0xbd155237	-0.03645536
16	0x3e4bd1a1	0.19904186
17	0x3d1c51f4	0.038164094
18	0xbdf6dc63	-0.12053754
19	0x3d86c9bb	0.06581446
20	0xbdf3a22f	-0.118961684
21	0xbcf80d2d	-0.03027972
22	0xbdd6c5e3	-0.10486963
23	0x3e2f6475	0.17128165
24	0xbe50b4c0	-0.2038145
25	0xbdf3c73c	-0.11903235
26	0xbd95513b	-0.07290884
27	0xbe1ef94d	-0.15524788
28	0x3cc7a2ca	0.024369616
29	0xbe8291ac	-0.25501764
30	0x3f31a34b	0.6938979
31	0xbf1786e7	-0.5919022
32	0x3e04977a	0.12948409
33	0x3ef1bc6e	0.47214073
34	0x3eb6e873	0.3572422
35	0x3e6387b8	0.22219741
36	0x3f01cf13	0.50706595
37	0x3f59a7f3	0.85021895
38	0x3ef04907	0.46930715
39	0xbedfffd0	-0.43749857
40	0xbf2380b5	-0.63868266
41	0xbbf1ac51	-0.007375278
42	0x3d114cab	0.035473507
43	0x3c23a657	0.009988389
44	0x3ea48337	0.3213136
45	0xbeac64a1	-0.33670524
46	0x3ed8104d	0.42199937
47	0x3c064152	0.0081942845
48	0xbdbade20	-0.09124398
49	0xbe4a08f3	-0.19729976
50	0xbe261d98	-0.16222227
51	0xbe8ec869	-0.27887276
52	0xbf7b28fc	-0.9810941
53	0x3e300fff	0.17193602
54	0x3ed077f0	0.40716505
55	0x3f1cb6f2	0.6121665
56	0x3e333a7c	0.17502779
57	0xbe289f8b	-0.16467111
58	0x3f0940e7	0.5361466
59	0xbc55b3ad	-0.013043326
60	0x3ee4b125	0.446664
61	0xbf004c47	-0.5011639
62	0xbd2818a4	-0.041039124
63	0x3ea63ab3	0.3246666
64	0x3e9f0f83	0.31066522
65	0xbea817ac	-0.3283056
66	0x3f2d8c5d	0.677923
67	0xbf19469c	-0.59873366
68	0x3d9ed72a	0.07755883
69	0xbeebbb94	-0.46041548
70	0xbe7d6bf1	-0.24748208
71	0xbe40fdce	-0.18846819
72	0x3e10a36d	0.14124842
73	0xbf07bf8b	-0.53026646
74	0xbe7cbcb5	-0.24681361
75	0xbe4eda85	-0.20200546
76	0xbe31db28	-0.17368758
77	0x3dd62e85	0.10458092
78	0x3dbd58f0	0.09245479
79	0x3e5bb15c	0.21454376
80	0xbe088a67	-0.13334046
81	0xbe343ddc	-0.17601722
82	0x3e0c4856	0.13699469
83	0xbdd5bd65	-0.10436515
84	0x3e2077d0	0.15670705
85	0xbd7af70c	-0.06127076
86	0x3e173f18	0.14770162
87	0xbe4d6d4e	-0.20061228
88	0xbe056d5d	-0.1303
89	0x3da1374d	0.07871876
90	0x3f01bdda	0.50680315
91	0xbf088751	-0.53331476
92	0x3e20244d	0.15638848
93	0x3f17d86e	0.5931462
94	0x3e9be922	0.30451304
95	0xbdb3706a	-0.08761676
96	0x3f2b4eed	0.66917306
97	0x3f3e6436	0.7437166
98	0x3ecce923	0.4002162
99	0xbf3610bd	-0.7111929
100	0xbf1779f8	-0.59170485
101	0x3deaf5c0	0.11472654
102	0xbcd654be	-0.026163455
103	0x3c404514	0.0117352195
104	0x3e2f7be0	0.17137098
105	0xbe349a92	-0.17637089
106	0xbe604ff9	-0.21905507
107	0xbe1197c2	-0.14218047
108	0xbe6766fb	-0.22597878
109	0xbe2859cd	-0.16440506
110	0x3e842568	0.2580979
111	0x3d47c03a	0.048767306
112	0x3da2f3c2	0.07956649
113	0xbe769902	-0.24081805
114	0xbe2da5ed	-0.16957827
115	0xbdb002e3	-0.085943006
116	0x3d256019	0.04037485
117	0xbe68a5bb	-0.22719471
118	0xbde3d788	-0.11125094
119	0xbe1e490e	-0.15457556
120	0x3a3b92cc	0.00071553583
121	0xbdc4c3d4	-0.09607664
122	0xbc92926e	-0.017892089
123	0xbe332990	-0.17496324
124	0xbe357adb	-0.17722647
125	0xbe1a3fb8	-0.1506337
126	0xbdb50100	-0.08838081
127	0xbe50aeb5	-0.20379145
128	0x3e5db013	0.21649198
129	0xbd51e462	-0.051243193
130	0x3e637c34	0.22215348
131	0x3da4c30c	0.08045015
132	0xbe5fe3b3	-0.21864204
133	0x3e36f89a	0.17868271
134	0xbd917e83	-0.07104208
135	0xbed6ac29	-0.41928223
136	0xbf03b6e9	-0.51450974
137	0xbe2f2349	-0.17103304
138	0xbebedd91	-0.37278417
139	0x3e360786	0.17776307
140	0xbd1c45bd	-0.038152445
141	0xbf1e1edd	-0.61765844
142	0x3f3af0cb	0.7302367
143	0x3d36d13e	0.044633143
144	0xbea8831a	-0.32912523
145	0x3ee67c4b	0.45016703
146	0xbbb04f68	-0.0053805597
147	0x3e932ecd	0.28746644
148	0x3f54f8ac	0.83191943
149	0xbebc1040	-0.36731148
150	0x3d851458	0.06498021
151	0xbde37266	-0.11105804
152	0xbce7ca3c	-0.028294675
153	0xbe45e5c5	-0.19325931
154	0x3e70d3bb	0.23518269
155	0xbe420da7	-0.1895052
156	0x3e0d4e7d	0.13799472
157	0x3db9d695	0.090741314
158	0x3dabd579	0.08390326
159	0xbe0ef1cb	-0.13959424
160	0x3e7052a5	0.23469026
161	0x3d68677b	0.05673931
162	0x3d080c28	0.033214718
163	0xbe68fffc	-0.227539
164	0x3dddfb02	0.108388916
165	0x3d3e8c44	0.046520486
166	0xbb24bf88	-0.0025138576
167	0x3d82b12b	0.06381448
168	0x3d7910e2	0.060807116
169	0x3f5656a2	0.8372594
170	0x3f6c2b83	0.92253894
171	0xbe416745	-0.1888705
172	0xc017385c	-2.362815
173	0x3f6a04e8	0.91413736
174	0xbe11871a	-0.14211693
175	0xbf95ffc9	-1.1718684
176	0x3f5c3e9d	0.8603304
177	0x3cf4ec3c	0.029897802
178	0xbf5a95a5	-0.8538459
179	0xbf6d3071	-0.9265204
180	0x3eea6b3b	0.45784935
181	0xbdf5b13e	-0.11996697
182	0x3cb306c7	0.021853818
183	0x3ea271d0	0.31727457
184	0xbadd5ba9	-0.0016888279
185	0x3d3b1d08	0.045681983
186	0x3f472301	0.77787787
187	0x3fc1ead9	1.5149795
188	0xbe51bdc5	-0.20482548
189	0xbe3bddc5	-0.18346317
190	0xbf1730ee	-0.59059036
191	0xbe2af474	-0.16694814
192	0x3dfb483d	0.12269638
193	0xbc21a6a6	-0.009866392
194	0xbc97125a	-0.018441368
195	0xbd6cca18	-0.05780992
196	0x3b76ebbc	0.003767713
197	0xbc7c95e9	-0.015416601
198	0x3d7e413a	0.062073924
199	0x3d942f63	0.07235601
200	0xbe70239f	-0.23451088
201	0xbdc324da	-0.09528513
202	0x3e5ea7c7	0.2174369
203	0x3dcdfe48	0.10058266
204	0xbc526808	-0.012842186
205	0xbe1f67da	-0.1556696
206	0xbe21c234	-0.15796739
207	0xbe6cd63d	-0.231286
208	0xbdac5db9	-0.08416314
209	0x3db29336	0.087194845
210	0x3e28959b	0.1646332
211	0x3df4243c	0.11920974
212	0xbe69b602	-0.22823337
213	0xbe1eff64	-0.15527111
214	0xbd26e776	-0.040748082
215	0x3e7fc355	0.24976857
216	0x3d18fcbd	0.037350405
217	0xbd88f105	-0.06686596
218	0x3ddac4df	0.106820814
219	0xbdc96828	-0.09834319
220	0xbe2b21b0	-0.1671207
221	0x3e40faa1	0.18845607
222	0xbdf0713e	-0.11740349
223	0xbd54029a	-0.051760294
224	0xbe8382cf	-0.25685737
225	0xbd9f658a	-0.07783039
226	0x3f0da23d	0.5532568
227	0x3cdcfa86	0.026974928
228	0xbeda9798	-0.42693782
229	0xbe99201e	-0.29907316
230	0x3ec2fcac	0.38083398
231	0xbd8cbe79	-0.06872267
232	0xbd913828	-0.07090789
233	0x3e312ea3	0.17302947
234	0x3ee6cd93	0.45078716
235	0x3baf6afb	0.0053533292
236	0x3f16879a	0.5880066
237	0xbe6e3bfc	-0.2326507
238	0xbf412bf4	-0.7545769
239	0xbee23b51	-0.4418588
240	0xbe298177	-0.16553293
241	0x3e8697a1	0.2628756
242	0xbe32aa9d	-0.17447896
243	0xbecdf596	-0.4022643
244	0xbe91e45b	-0.28494534
245	0x3cf00347	0.029298438
246	0xbed997b5	-0.42498556
247	0xbe9cc9c3	-0.30622682
248	0xbea11747	-0.31463072
249	0x3f0637c2	0.5242883
250	0x3ede211a	0.4338463
251	0x3cb1200c	0.021621726
252	0xbe18d649	-0.14925493
253	0x3e305954	0.17221576
254	0xbda13849	-0.07872064
255	0xbe7bb419	-0.2458042

fc1.bias f4 [128]
0	0xbeb2f0dd	-0.3494939
1	0xbe45a123	-0.1929975
2	0xbe4e0528	-0.20119154
3	0xbcf9235a	-0.030412365
4	0x3d271370	0.04079002
5	0xbc6d8763	-0.014497611
6	0xbd295b70	-0.041346967
7	0xbddbbe26	-0.10729627
8	0x3e5679cb	0.20944898
9	0x3dcc573c	0.09977576
10	0xbe6cc8d8	-0.23123491
11	0xbd091cb8	-0.033474654
12	0xbe8ef297	-0.27919456
13	0x3de0a50f	0.109689824
14	0xbe66ff80	-0.22558403
15	0x3910d6de	0.00013812954
16	0x3eba6ee0	0.36412716
17	0xbe7c79fc	-0.24655908
18	0x3e12aba0	0.14323282
19	0xbd4021a3	-0.04690708
20	0x3e536b81	0.20646478
21	0xbe062d90	-0.13103318
22	0x3e2da9a1	0.1695924
23	0x3cff33df	0.031152664
24	0x3ca2aeb5	0.019858697
25	0x3e93c4d5	0.28861108
26	0xbe8b0f7e	-0.27160257
27	0xbe54f534	-0.20796663
28	0x3e77b04a	0.24188343
29	0xbea3a070	-0.31958342
30	0xbe3e9413	-0.18611173
31	0xbc4ed72b	-0.012624542
32	0x3d256311	0.04037768
33	0x3da969f4	0.08272162
34	0xbe96aabe	-0.2942714
35	0x3e58ade7	0.21160088
36	0xbe6381f2	-0.22217539
37	0x3cab503e	0.020912286
38	0x3e1a490a	0.15066925
39	0x3d4b3323	0.049609315
40	0x3d0c8556	0.034306847
41	0x3d1aafb5	0.037765224
42	0xbe4489b9	-0.19193162
43	0xbd4977b6	-0.04918643
44	0xbe10970a	-0.14120117
45	0xbe329b58	-0.17442071
46	0xbd4b43da	-0.049625255
47	0x3e9c47b6	0.3052346
48	0x3d421824	0.047386304
49	0x3db93bc6	0.09044604
50	0x3e78efc4	0.24310213
51	0xbca53b6f	-0.020169942
52	0xbc1e67d6	-0.009668311
53	0xbe9a90e6	-0.30188674
54	0xbd034151	-0.032044712
55	0x3dbcbeb2	0.0921606
56	0xbe5ea9bf	-0.2174444
57	0xbe500286	-0.20313463
58	0xbd591eb9	-0.053007815
59	0x3e949f31	0.29027703
60	0x3de99e8c	0.114071935
61	0xbd8f4ae7	-0.06996708
62	0x3e3500b8	0.17676055
63	0x3df4591a	0.11931057
64	0x3db2e5b9	0.08735222
65	0xbe02e055	-0.12780888
66	0xbe5404c1	-0.20704938
67	0xbd6470a9	-0.055771504
68	0xbd3fcea7	-0.04682794
69	0x3acc7af2	0.0015600605
70	0xbd3d4278	-0.046205968
71	0x3d8c2b8b	0.06844243
72	0x3e2fb443	0.17158608
73	0xbe56d24a	-0.20978656
74	0xbe7adfe8	-0.24499476
75	0xbead9cdb	-0.33908734
76	0x3c741333	0.014897156
77	0x3d292eb6	0.041304313
78	0xbe2a8bf7	-0.16654955
79	0xbcc6f23f	-0.024285434
80	0xbe187acb	-0.14890592
81	0xbe3f36a6	-0.1867319
82	0x3d8bcb9a	0.06825943
83	0xbe240edb	-0.16021292
84	0xbc5ad820	-0.013357192
85	0xbe39e47e	-0.18153569
86	0xbc70e073	-0.01470195
87	0x3e07f378	0.1327647
88	0x3dde6ba5	0.10860375
89	0xbe3c2df9	-0.18376912
90	0x3d9d1862	0.07670666
91	0xbd890230	-0.0668987
92	0xbe6b2462	-0.22963098
93	0xbe42f957	-0.19040428
94	0xbd74b704	-0.05974485
95	0xbe79c4d5	-0.24391492
96	0x3eb51b9f	0.35372636
97	0xbe1ee264	-0.15516049
98	0xbddb2409	-0.107002325
99	0x3d6cfe8d	0.057859946
100	0x3dd07020	0.10177636
101	0xbe7b176c	-0.24520653
102	0x3df7e832	0.121048346
103	0xbe1a211d	-0.15051694
104	0x3e1bf87b	0.15231507
105	0x3e032afd	0.12809367
106	0xbe571406	-0.21003732
107	0xbe2a9adc	-0.16660637
108	0xbc098d31	-0.008395479
109	0x3d4a0ae3	0.04932679
110	0x3e231f2b	0.15929858
111	0x3e4b24c5	0.19838245
112	0xbe6853ee	-0.22688267
113	0x3c8f7387	0.017511142
114	0xbd7945fe	-0.060857765
115	0xbba05cee	-0.0048938906
116	0x3d23e529	0.040013466
117	0xbe95d120	-0.29261112
118	0x3dc91f22	0.09820391
119	0x3ea8d08d	0.32971612
120	0xbd380d0c	-0.044934317
121	0xbe3d4696	-0.18483958
122	0xbe8c2ed6	-0.27379483
123	0xbdda27a1	-0.1065209
124	0xbd76409e	-0.060120218
125	0x3e3ebd8f	0.18626998
126	0x3d404aaf	0.046946224
127	0x3ed7f003	0.42175302

fc2.weight f4 [32, 128]
0	0xbe770670	-0.2412355
1	0x3c9bb166	0.019005489
2	0xbf1d6942	-0.61488736
3	0x3df14715	0.11781136
4	0x3eb89566	0.36051482
5	0xbda2ef98	-0.07955855
6	0xbf3ea4a0	-0.7446995
7	0x3b426f03	0.002966822
8	0x3d095f70	0.033538282
9	0x3e36b700	0.17843246
10	0xbd57838d	-0.05261569
11	0x3d959559	0.073038764
12	0x3cf86a05	0.030323992
13	0xbc258c94	-0.010104317
14	0x3cd21cdc	0.025648527
15	0x3ed342c5	0.4126188
16	0x3d761fbe	0.060088865
17	0x3bc140fe	0.0058976403
18	0x3ec3e8be	0.38263506
19	0x3e1ef594	0.15523368
20	0x3d10d418	0.03535852
21	0x3c2c8e76	0.010532012
22	0xbd3512b2	-0.044207282
23	0x3d337ad9	0.04381833
24	0xbdb22065	-0.08697585
25	0x3da853ab	0.082190834
26	0x3e4dc621	0.20095111
27	0x3c0bd2b8	0.008534126
28	0x3d276c56	0.0408748
29	0xbe8a628b	-0.27028307
30	0x3d1b303e	0.037887804
31	0x3d665589	0.056233916
32	0x3d21bb36	0.03948518
33	0xbe5970ad	-0.21234389
34	0x3dfebdd9	0.12438554
35	0x3be6d2c2	0.0070441673
36	0x3c91be50	0.017790943
37	0x3d8d95a7	0.069133095
38	0xbd44cf4a	-0.04804925
39	0xbd73fd37	-0.059567656
40	0x3d60af0f	0.05485445
41	0xbd2a09b7	-0.04151317
42	0x3e1ec0a6	0.15503177
43	0xbc5559db	-0.0130219115
44	0x3f98ffdf	1.1953086
45	0x3d8a237a	0.06745048
46	0xbdc5d640	-0.096600056
47	0x3ef253d4	0.4732958
48	0xbe8764bb	-0.2644404
49	0x3b9e9481	0.0048394804
50	0x3e9b6a44	0.30354512
51	0xbd9f0157	-0.077639274
52	0x3d716279	0.0589318
53	0x3f5ec33b	0.8701665
54	0x3e348227	0.17627774
55	0xbd149cfc	-0.036282524
56	0xbc8ee35d	-0.0174424
57	0xbdeb10b0	-0.11477792
58	0xbeb6cee0	-0.35704708
59	0x3f8a07a6	1.0783584
60	0x3d891738	0.06693882
61	0x3d15c64e	0.03656607
62	0x3d4c5a72	0.049890943
63	0xbb15e326	-0.0022870987
64	0xbc90854f	-0.017641691
65	0x3e70bb33	0.23508911
66	0x3d8ec1e8	0.069705784
67	0x3cb4b172	0.022057269
68	0x3d7c1817	0.06154641
69	0x3e7f8706	0.24953851
70	0x3e9f59ed	0.31123295
71	0x3df6feed	0.12060342
72	0x3ce9a5f6	0.02852152
73	0x3fc04af2	1.5022871
74	0x3d99ffee	0.07519518
75	0x3eb93635	0.3617417
76	0x3debcae0	0.11513305
77	0xbdeddbb2	-0.11614169
78	0x3da24d05	0.079248466
79	0xbd8ce41d	-0.06879447
80	0x3f88a1c3	1.0674366
81	0x3e456bad	0.19279356
82	0xbea7f40f	-0.3280339
83	0xbe78bee7	-0.24291573
84	0xbd870ee3	-0.06594636
85	0x3d8120cd	0.063050844
86	0xbe597276	-0.2123507
87	0x3e766c65	0.24064787
88	0x3db08c3c	0.086204976
89	0xbbe20927	-0.0068980637
90	0x3bc035e1	0.005865798
91	0xbd009b0f	-0.031397875
92	0x3e4f36bf	0.20235728
93	0xbd6682b3	-0.05627699
94	0x3d42a635	0.04752179
95	0x3d61c1a6	0.05511632
96	0xbe0082be	-0.12549874
97	0x3ee21d07	0.4416277
98	0x3c5b531b	0.013386513
99	0x3d0bdfa2	0.03414882
100	0xbe889974	-0.26679575
101	0x3e8466f1	0.25859788
102	0x3faef94d	1.366983
103	0xbdac6fe4	-0.08419779
104	0x3ce5f31a	0.028070021
105	0x3dbd57e7	0.09245282
106	0x3db14ad6	0.08656852
107	0xbd9ed595	-0.07755581
108	0x3b05d647	0.0020421909
109	0x3d77eff5	0.060531575
110	0x3dd8a7a0	0.10578847
111	0xbe905a32	-0.28193814
112	0x3d619d71	0.05508179
113	0xbe0aa18a	-0.13538185
114	0x3d987c16	0.074455425
115	0xbc55ba11	-0.01304485
116	0xbe39fcd6	-0.18162856
117	0xbe53b164	-0.20673138
118	0xbda15d95	-0.078791775
119	0xbee65d68	-0.44993138
120	0x3f850a31	1.0393735
121	0x3d5c6941	0.053811315
122	0xbd9cdba9	-0.07659084
123	0xbcd46456	-0.02592675
124	0x3d9bdb90	0.076102376
125	0xbd869816	-0.06571977
126	0x3d3cc287	0.046083953
127	0x3dbd7b96	0.09252088
128	0xbf664324	-0.899462
129	0x3cc5b3f1	0.024133654
130	0xbf14842b	-0.5801417
131	0xbfa23abc	-1.2674174
132	0xbce4d674	-0.02793429
133	0xbb407240	-0.0029364973
134	0xbea1eaf1	-0.3162456
135	0xbdabb5b5	-0.08384267
136	0x3c697f73	0.014251578
137	0xbf9712e5	-1.1802641
138	0xbd36479c	-0.044501886
139	0x3dcb4b5c	0.09926483
140	0xbd840d94	-0.06447902
141	0xbdae7f97	-0.085204296
142	0xbd5f9ce1	-0.05459297
143	0xbf4a7539	-0.7908512
144	0xbfcefa72	-1.617018
145	0xbc8bed25	-0.017080853
146	0x3c8cf74e	0.017207768
147	0x3e0b0374	0.13575536
148	0x3c553cbb	0.013014968
149	0x3ac8a10e	0.0015306787
150	0x3cbf402f	0.023346035
151	0x3db3f29d	0.08786509
152	0x3d5ed0ef	0.054398473
153	0x3d88dc07	0.06682592
154	0xbe567e62	-0.20946649
155	0xbcaf4cc1	-0.021398904
156	0xbd359bbd	-0.044337977
157	0xbf06fc8b	-0.527291
158	0x3a546719	0.0008102521
159	0x3d91991e	0.07109283
160	0xbf82c500	-1.021637
161	0x3ea103b3	0.31448135
162	0xbe9d93f4	-0.30776942
163	0x3dec84bb	0.11548754
164	0xbc33b28e	-0.010967864
165	0x3d92121d	0.07132361
166	0xbd8d8a00	-0.06911087
167	0x3d3075b4	0.043081
168	0xbd66c783	-0.056342613
169	0xbd9e9672	-0.07743539
170	0xbd4e1436	-0.050312243
171	0x3d306c58	0.043072075
172	0x3e7c6886	0.24649248
173	0x3cb5b3a6	0.02218039
174	0xbf7311ce	-0.9494904
175	0xbf3d6788	-0.739861
176	0xbf736f5c	-0.95091796
177	0xbc01f423	-0.007931742
178	0xbe10a820	-0.14126635
179	0x3d9a0a6b	0.07521518
180	0x3e16755a	0.14693204
181	0xbf5d24ba	-0.86384165
182	0xbf575569	-0.841147
183	0xbd5eadd8	-0.05436501
184	0xbc65e1a0	-0.014030844
185	0xbf0e4a00	-0.55581665
186	0x3e11837d	0.14210315
187	0xbe18886c	-0.14895791
188	0x3e15e15a	0.14636746
189	0x3e262291	0.16224124
190	0xbd793669	-0.060842905
191	0xbdaa6c55	-0.08321444
192	0x3b6203b8	0.003448708
193	0xbd87139a	-0.065955356
194	0x3cd490a4	0.025947876
195	0xbd7511af	-0.059831318
196	0x3d143285	0.03618099
197	0xbccf766b	-0.02532502
198	0xbe2fae39	-0.17156304
199	0x3e351772	0.17684725
200	0x3d2f2ff8	0.042770356
201	0xbf6d8d0f	-0.92793363
202	0xbdadf6fa	-0.08494373
203	0xbd75d928	-0.06002155
204	0x3e1fc322	0.15601781
205	0x3ebd3b00	0.36959076
206	0x3c396e82	0.011317851
207	0x3d010213	0.03149612
208	0x3d783a68	0.060602576
209	0x3dae1b9b	0.08501359
210	0x3f17e4a7	0.5933327
211	0xbe12b6a6	-0.14327487
212	0xbd5c7226	-0.053819798
213	0xbb041bae	-0.00201581
214	0xbfacd018	-1.3501005
215	0xbf969c3e	-1.1766431
216	0xbdf104d2	-0.117684975
217	0x3c636033	0.013877916
218	0xbcc0bf6f	-0.023528783
219	0xbdac5203	-0.0841408
220	0xbd22f3b9	-0.039783213
221	0x3db04376	0.08606617
222	0xba9a1fe7	-0.0011758775
223	0x3d660747	0.056159284
224	0xbde24b4f	-0.1104952
225	0xbe33cf52	-0.17559555
226	0x3d3a74f7	0.045521703
227	0x3e42cb61	0.19022895
228	0xbe5b5f93	-0.21423177
229	0xbe576147	-0.21033202
230	0x3c541c87	0.012946255
231	0xbd9c93d7	-0.07645386
232	0x3c570c8a	0.013125548
233	0x3e4c7227	0.1996542
234	0xbda6d7c6	-0.08146624
235	0xbd885c19	-0.06658191
236	0x3e30db13	0.1727107
237	0xbd53dd7d	-0.0517249
238	0x3d8fc806	0.07020573
239	0xbf17d5a8	-0.5931039
240	0x3d93d0ab	0.07217535
241	0x3d3211c2	0.043473966
242	0x3d9b6a19	0.07588596
243	0xbf91f321	-1.1402322
244	0xbf7ceeb1	-0.98801714
245	0xbe40d125	-0.18829782
246	0x3c38682c	0.011255305
247	0x3f7b7a84	0.9823382
248	0xbf1e1163	-0.6174528
249	0xbd1fdeb3	-0.039030742
250	0xbe2e35a2	-0.17012647
251	0xbd9e6b24	-0.07735279
252	0x3dac67ac	0.08418211
253	0xbc958947	-0.018253936
254	0xbd229e72	-0.039701886
255	0x3e09ed2a	0.13469377

fc2.bias f4 [32]
0	0xbdc0a1f8	-0.09405893
1	0x3e9fd631	0.31218103
2	0xbe35705c	-0.17718643
3	0xbdcd9cda	-0.10039683
4	0xbdd506d2	-0.104016915
5	0x3ce467f7	0.027881606
6	0xbb3d4993	-0.0028882965
7	0xbdf8ef0a	-0.12154968
8	0xbe5f6cfa	-0.21818915
9	0xbda6381a	-0.08116169
10	0xbeb246c4	-0.34819615
11	0xbcc69767	-0.024242116
12	0x3d1f5e00	0.038908005
13	0x3dcf6545	0.101267375
14	0x3efe8cf0	0.49716902
15	0x3e74662c	0.238671
16	0xbdf78fb0	-0.12087953
17	0x3edb409b	0.42822728
18	0xbdbb294f	-0.09138738
19	0x3d24b260	0.040209174
20	0x3e9a0da2	0.30088526
21	0xbe3d5b22	-0.18491796
22	0x3d8316bb	0.0640082
23	0x3d6830d1	0.05668718
24	0x3e10e6d7	0.14150558
25	0xbe98d99d	-0.29853526
26	0xbe686f98	-0.2269882
27	0xbdfaac18	-0.122398555
28	0x3de2644d	0.11054287
29	0x3e04ff0a	0.12987915
30	0x3f047178	0.5173564
31	0xbde01898	-0.10942191

fc3.weight f4 [4, 32]
0	0x3ddf45df	0.10901999
1	0xc030c25e	-2.7618632
2	0xbe49996e	-0.19687435
3	0x3e7beb72	0.24601534
4	0xbd9b9d34	-0.075983435
5	0xbd2fba21	-0.042902116
6	0xc015e622	-2.3421712
7	0x3eee2686	0.46513766
8	0xbfdcfbf0	-1.7264385
9	0x3f15aef1	0.58470064
10	0x3f26a4bf	0.6509513
11	0xc032b568	-2.7923222
12	0xbfff0c26	-1.9925582
13	0xbf517a9f	-0.8182773
14	0xbff356f6	-1.9010913
15	0x3f547bba	0.8300129
16	0xbf897ff8	-1.0742178
17	0xbfe782b0	-1.8086758
18	0xbddd70a7	-0.10812502
19	0x3e9909d3	0.29890308
20	0xbebb4eef	-0.3658366
21	0xbf866cd4	-1.0501962
22	0x3f469a91	0.775796
23	0x3e202cac	0.15642041
24	0x3ebc0ac0	0.36726952
25	0x3e56bfac	0.20971555
26	0xbe016e16	-0.1263965
27	0x3e751bb0	0.23936343
28	0x3cd60921	0.0261274
29	0x3ed79532	0.42106014
30	0xbfff9f2e	-1.9970453
31	0x3eacb383	0.33730707
32	0x3e267196	0.16254267
33	0xbd668d82	-0.056287296
34	0x3d2317f5	0.03981777
35	0x3ee7b2af	0.45253512
36	0xbde5c0b9	-0.112183996
37	0xbf78295d	-0.96938115
38	0xbf0a202d	-0.53955346
39	0xbf9e95f0	-1.2389507
40	0x3f811d51	1.0087072
41	0x3f011986	0.5042957
42	0xbfa2e8bb	-1.2727274
43	0xbedfea56	-0.43733472
44	0x3ec47546	0.38370723
45	0x3f5f5d83	0.8725206
46	0x3e526790	0.20547318
47	0xbf122cd7	-0.5709967
48	0x3f45d497	0.7727751
49	0xbc9389b4	-0.018009998
50	0xbd982154	-0.07428232
51	0xbe2a1165	-0.16608198
52	0xbfc1df1c	-1.5146213
53	0x3f394f10	0.72386265
54	0xbd89b916	-0.067247555
55	0x3ee85bf3	0.45382652
56	0xbf83bf27	-1.029271
57	0x3ec7deb2	0.3903709
58	0x3f36ba6d	0.71378213
59	0x3ec635ff	0.3871307
60	0x3e4c5379	0.19953717
61	0xbfb5f01d	-1.4213902
62	0x3d768482	0.060184963
63	0x3f080700	0.5313568
64	0xbe6fc155	-0.23413594
65	0x3ef8f730	0.4862609
66	0xbfc06b38	-1.503272
67	0xbfcad373	-1.5845779
68	0xbe377b57	-0.17918144
69	0x3f872b6d	1.0560127
70	0x3fb70939	1.429969
71	0x3fba4baa	1.4554341
72	0xbffa3be6	-1.954953
73	0xbfdbac88	-1.7162027
74	0xbf0ec6ef	-0.557723
75	0x401fb064	2.495141
76	0xbf2bb776	-0.67076814
77	0xbff7fd02	-1.9374087
78	0x3f18fa73	0.59757155
79	0xbfdd4d42	-1.7289202
80	0xc014f16a	-2.3272347
81	0x3ebc9d15	0.36838594
82	0xbb23e1b6	-0.002500636
83	0x3eb0f0f7	0.34558842
84	0x3f132b09	0.5748754
85	0xc0076777	-2.11569
86	0x3eedc813	0.46441707
87	0xbfdf1ea9	-1.7431232
88	0x3f22151a	0.6331345
89	0xbec62cdf	-0.3870611
90	0xbf9cd6c0	-1.2253036
91	0xbf0d9389	-0.55303246
92	0x3ed9fa2b	0.42573676
93	0x3ebe94ea	0.37222987
94	0x3f1d8ac4	0.61539865
95	0x3e414dd0	0.1887734
96	0xbf86feaf	-1.0546473
97	0x3eaadcd6	0.3337161
98	0x3f624bb2	0.8839675
99	0xbe0b24f9	-0.13588323
100	0xbc4729f9	-0.012156003
101	0xbdf26169	-0.11834986
102	0x3d3da510	0.046299994
103	0xbfd5398b	-1.6658186
104	0x3f16f7df	0.5897197
105	0xbf11aa26	-0.5690025
106	0x3f57c3b4	0.84282994
107	0xbf53bd66	-0.82710874
108	0x3f0e6e05	0.55636626
109	0x3f62cfd8	0.88598394
110	0x3eb102c7	0.3457243
111	0x3f36fd8f	0.7148065
112	0x3f0c328b	0.5476462
113	0x3e300d9b	0.1719269
114	0xbe011bfc	-0.12608331
115	0xbf2a45f7	-0.6651301
116	0x3ed11259	0.4083431
117	0x3daa8b3e	0.083273396
118	0xbf2a8931	-0.6661559
119	0x3f1a169d	0.60190755
120	0x3d2218a6	0.039574288
121	0xc00f30d2	-2.2373548
122	0xbee664ee	-0.44998878
123	0xbf5a8737	-0.8536257
124	0xbf38bb91	-0.72161204
125	0x3ee783c4	0.45217717
126	0x3e9837c2	0.2973004
127	0xc0b68d98	-5.7047844

fc3.bias f4 [4]
0	0x3efe006c	0.49609697
1	0xbf10190a	-0.56288207
2	0xbe380de9	-0.17974056
3	0x3ec15c2a	0.37765628
