frontend/assets/models/phoneme_models/O_model.onnx (onnx, 25717 bytes, 6 tensors)

fc1.weight f4 [128, 15]
000000 f8 30 60 3f 1b c4 83 bc 40 e5 85 bd 42 5e 64 3f
       0.8757472 -0.016084721 -0.065378666 0.89206326
000010 17 54 74 3e 55 29 cc bd c9 51 2a 3f ac f8 23 3f
       0.23860203 -0.09968821 0.66531044 0.6405132
000020 72 d5 05 3f 54 2c bd be 80 6a bd bd 08 e6 d3 bd
       0.52278817 -0.36947882 -0.09248829 -0.10346609
000030 07 16 10 3e 34 7a b8 be 0f 91 84 3e 37 52 15 bd
       0.14070903 -0.36030734 0.2589192 -0.03645536
000040 a1 d1 4b 3e f4 51 1c 3d 63 dc f6 bd bb c9 86 3d
       0.19904186 0.038164094 -0.12053754 0.06581446
000050 2f a2 f3 bd 2d 0d f8 bc e3 c5 d6 bd 75 64 2f 3e
       -0.118961684 -0.03027972 -0.10486963 0.17128165
000060 c0 b4 50 be 3c c7 f3 bd 3b 51 95 bd 4d f9 1e be
       -0.2038145 -0.11903235 -0.07290884 -0.15524788
000070 ca a2 c7 3c ac 91 82 be e8 b9 67 3f db fe cf be
       0.024369616 -0.25501764 0.90518045 -0.40624127
000080 7e d2 0f 3e a3 cb 2b 3f 47 da b5 3e a4 63 2b 3e
       0.1404514 0.671076 0.35518095 0.16737229
000090 34 c8 61 3f 22 cd 85 3f ec 3a ef 3e e1 40 56 be
       0.8819611 1.0453227 0.4672464 -0.20923187
0000a0 92 38 81 3d 6f c5 7e bd b7 28 86 bb a0 6f a3 bd
       0.06309618 -0.062200006 -0.004094209 -0.07980275
0000b0 07 85 10 3e d4 0a ac bc d0 c9 d3 3e ad cb 47 bd
       0.14113246 -0.021001257 0.41364908 -0.048778225
0000c0 1a ef a1 3e 9e c4 07 bf e8 e4 e0 be 84 a1 32 bd
       0.31627733 -0.5303439 -0.43924642 -0.043611065
0000d0 b7 01 43 bf 8d f9 24 be b2 ea 9d 3e fa 8a 6a b9
       -0.7617449 -0.16110821 0.3084312 -0.00022367752
0000e0 fb e2 d0 bd 26 b4 71 bd c2 04 92 3e d2 6c 25 bd
       -0.10199543 -0.059009694 0.28519255 -0.040386982
0000f0 da 25 5e bf 50 17 b5 be 2a b0 90 bd 78 de 7f bf
       -0.86776507 -0.3536935 -0.07064851 -0.99948835
000100 be 12 41 be 86 d6 26 bd ee 2a 46 bf 1c ff 42 bf
       -0.18854806 -0.04073193 -0.77409256 -0.76170516
000110 06 e3 d7 be 62 73 bd be 05 41 f3 3d 6c f8 ca 3d
       -0.42165393 -0.37002093 0.11877636 0.09910664
000120 17 63 06 3e 5c 7e 72 be cd 28 7f be 85 da 4e be
       0.13123737 -0.23681015 -0.24917908 -0.20200546
000130 28 db 31 be 85 2e d6 3d f0 58 bd 3d 5c b1 5b 3e
       -0.17368758 0.10458092 0.09245479 0.21454376
000140 67 8a 08 be dc 3d 34 be 56 48 0c 3e 65 bd d5 bd
       -0.13334046 -0.17601722 0.13699469 -0.10436515
000150 d0 77 20 3e 0c f7 7a bd 18 3f 17 3e 4e 6d 4d be
       0.15670705 -0.06127076 0.14770162 -0.20061228
000160 5d 6d 05 be 4d 37 a1 3d 69 34 32 3f 50 da 80 be
       -0.1303 0.07871876 0.6961122 -0.2516656
000170 c7 07 d3 3d 8d df 3e 3f 49 31 c6 3e 55 81 db 3c
       0.10304218 0.7455986 0.38709477 0.026795069
000180 95 14 6e 3f 50 05 8b 3f 50 31 f7 3e f5 85 cf be
       0.93000156 1.0860996 0.4827981 -0.4053189
000190 9e c1 41 3e 36 a3 6a 3e ea 9d e3 bd 1e 45 28 be
       0.18921515 0.22913823 -0.11114104 -0.16432616
0001a0 5b 23 98 bd 92 9a 34 be f9 4f 60 be c2 97 11 be
       -0.074286185 -0.17637089 -0.21905507 -0.14218047
0001b0 fb 66 67 be cd 59 28 be 68 25 84 3e 3a c0 47 3d
       -0.22597878 -0.16440506 0.2580979 0.048767306
0001c0 c2 f3 a2 3d 02 99 76 be ed a5 2d be e3 02 b0 bd
       0.07956649 -0.24081805 -0.16957827 -0.085943006
0001d0 19 60 25 3d bb a5 68 be 88 d7 e3 bd 0e 49 1e be
       0.04037485 -0.22719471 -0.11125094 -0.15457556
0001e0 cc 92 3b 3a d4 c3 c4 bd 6e 92 92 bc 90 29 33 be
       0.00071553583 -0.09607664 -0.017892089 -0.17496324
0001f0 db 7a 35 be b8 3f 1a be 00 01 b5 bd b5 ae 50 be
       -0.17722647 -0.1506337 -0.08838081 -0.20379145
000200 13 b0 5d 3e 62 e4 51 bd 34 7c 63 3e 0c c3 a4 3d
       0.21649198 -0.051243193 0.22215348 0.08045015
000210 b3 e3 5f be 9a f8 36 3e 83 7e 91 bd b6 d3 69 be
       -0.21864204 0.17868271 -0.07104208 -0.22834668
000220 98 7f 99 be cc 2a b4 be d0 01 d8 3d bc 64 c8 be
       -0.2998016 -0.351889 0.10547221 -0.39139354
000230 f6 30 c8 3d cb c9 21 bf 3a 86 0b 3e 1a 47 06 bf
       0.097749636 -0.63198537 0.13625422 -0.5245224
000240 05 ad 90 be 74 9b 65 3e b3 a7 05 3e 5a 0b 82 3e
       -0.28257003 0.22422582 0.13052253 0.25399286
000250 6b 03 02 3f d9 2d 2d be 58 14 85 3d 66 72 e3 bd
       0.50786465 -0.1691202 0.06498021 -0.11105804
000260 3c ca e7 bc c5 e5 45 be bb d3 70 3e a7 0d 42 be
       -0.028294675 -0.19325931 0.23518269 -0.1895052
000270 7d 4e 0d 3e 95 d6 b9 3d 79 d5 ab 3d cb f1 0e be
       0.13799472 0.090741314 0.08390326 -0.13959424
000280 a5 52 70 3e 7b 67 68 3d 28 0c 08 3d fc ff 68 be
       0.23469026 0.05673931 0.033214718 -0.227539
000290 02 fb dd 3d 47 ac a2 bf c4 8b 9a be c8 b0 1d 3e
       0.108388916 -1.2708825 -0.30184758 0.15399468
0002a0 3b 3a 9a bf 6e 54 f5 be a5 ae f2 bc 0e d2 af bf
       -1.204902 -0.47915977 -0.029624293 -1.3735979
0002b0 bb d3 2a bf 01 f8 cd be 20 27 bd be f6 14 53 be
       -0.66729325 -0.40228274 -0.36943913 -0.20613465
0002c0 2a 13 bc bd d6 c1 50 3d 38 eb 68 3e 45 68 8c be
       -0.09183343 0.050966106 0.22745979 -0.274233
0002d0 ac 9c 5b 3e 51 80 bc 3e 47 25 1e be 90 79 02 3e
       0.21446484 0.36816648 -0.15443908 0.12741685
0002e0 b6 8c ad bd 9f 9f de 3d 96 bd 2d 3e 7b 79 bf be
       -0.08474104 0.10870289 0.16966853 -0.3739737
0002f0 83 64 93 be ce 94 5f 3e 43 3f 8d 3c 26 d8 d4 bd
       -0.28787622 0.21834108 0.01724208 -0.103927895
000300 6c eb 8e 3c 57 cd d4 3e 9a 99 08 3c 18 ca 6c bd
       0.017446242 0.41562912 0.008337403 -0.05780992
000310 bc eb 76 3b e9 95 7c bc 3a 41 7e 3d 63 2f 94 3d
       0.003767713 -0.015416601 0.062073924 0.07235601
000320 9f 23 70 be da 24 c3 bd c7 a7 5e 3e 48 fe cd 3d
       -0.23451088 -0.09528513 0.2174369 0.10058266
000330 08 68 52 bc da 67 1f be 34 c2 21 be 3d d6 6c be
       -0.012842186 -0.1556696 -0.15796739 -0.231286
000340 b9 5d ac bd 36 93 b2 3d 9b 95 28 3e 3c 24 f4 3d
       -0.08416314 0.087194845 0.1646332 0.11920974
000350 02 b6 69 be 64 ff 1e be 76 e7 26 bd 55 c3 7f 3e
       -0.22823337 -0.15527111 -0.040748082 0.24976857
000360 bd fc 18 3d 05 f1 88 bd df c4 da 3d 28 68 c9 bd
       0.037350405 -0.06686596 0.106820814 -0.09834319
000370 b0 21 2b be a1 fa 40 3e 3e 71 f0 bd 9a 02 54 bd
       -0.1671207 0.18845607 -0.11740349 -0.051760294
000380 cf 82 83 be 49 df e7 3e a9 20 77 3c bd 9b 4b 3e
       -0.25685737 0.4528754 0.01508347 0.19883628
000390 d4 be 9a ba 31 c6 3f 3e 47 59 1a be 0f 6e 22 3f
       -0.0011806139 0.18727948 -0.15073119 0.63449186
0003a0 f2 be 7c 3f 36 cd 28 3f fe 7e 58 3d 1d f2 cc 3e
       0.9872886 0.6593813 0.052855484 0.40028468
0003b0 fc 31 67 3d 2b 96 4d be 80 55 df 36 8a 24 90 be
       0.056444153 -0.20076816 6.6558714e-06 -0.28152877
0003c0 c5 c3 b4 be b1 96 06 3e 1a b3 e7 bd 69 50 08 bf
       -0.3530561 0.13143422 -0.11313458 -0.53247696
0003d0 dc 6d 06 bf 3a f1 ed be 00 59 36 bf 9c 5b 16 bf
       -0.5251138 -0.46473104 -0.71229553 -0.58733535
0003e0 5d 07 0e bf da 0a c1 3e e5 08 f3 bd 64 df f1 be
       -0.55479985 0.37703592 -0.11866931 -0.47240746
0003f0 5c 04 9a bd 88 e6 ac 3c b1 7a 25 3e 19 b4 7b be
       -0.07520363 0.02110602 0.16160084 -0.2458042

fc1.bias f4 [128]
000000 5a 16 8a be 23 a1 45 be 91 98 33 be 22 d1 95 3c
       -0.26970178 -0.1929975 -0.17538668 0.018288199
000010 e8 c1 72 bc 63 87 6d bc d7 83 d0 bc 26 be db bd
       -0.014816739 -0.014497611 -0.025453491 -0.10729627
000020 cb 79 56 3e 8f 0a d8 3d d8 c8 6c be 56 f2 51 be
       0.20944898 0.10548889 -0.23123491 -0.205026
000030 33 f4 58 be 0f a5 e0 3d 80 ff 66 be ac cb 21 be
       -0.21186905 0.109689824 -0.22558403 -0.15800351
000040 03 7f b8 3e fc 79 7c be fd a4 dc 3d 09 d5 05 bc
       0.36034402 -0.24655908 0.107736565 -0.008168467
000050 81 6b 53 3e 90 2d 06 be a1 a9 2d 3e df 33 ff 3c
       0.20646478 -0.13103318 0.1695924 0.031152664
000060 b5 ae a2 3c 2a 88 72 3e 79 88 ac be 34 f5 54 be
       0.019858697 0.23684755 -0.3369787 -0.20796663
000070 ef 0a 8c 3e 83 43 8c be 13 94 3e be 2b d7 4e bc
       0.27352092 -0.27395257 -0.18611173 -0.012624542
000080 43 ac cb bd 6f 2b 9e 3d 7b 66 6b be 75 81 2e 3e
       -0.09944966 0.07723128 -0.22988312 0.17041571
000090 f2 81 63 be 41 8d 7b 3c 0a 49 1a 3e 23 33 4b 3d
       -0.22217539 0.015353502 0.15066925 0.049609315
0000a0 56 85 0c 3d b5 af 1a 3d 7e 1b 83 be b6 77 49 bd
       0.034306847 0.037765224 -0.25606912 -0.04918643
0000b0 da 96 0f be 58 9b 32 be 8a 1c 49 be 8d a7 26 3e
       -0.14022389 -0.17442071 -0.19639793 0.16274853
0000c0 36 e8 74 bd c6 3b b9 3d fb f8 19 3e 6f 3b a5 bc
       -0.059791766 0.09044604 0.15036385 -0.020169942
0000d0 87 7b 8f bd 1a b8 81 be 7f 4c 15 be b4 a8 19 3e
       -0.07005983 -0.2533577 -0.14579962 0.15005761
0000e0 bf a9 5e be a0 e4 15 3d d7 75 ff 3d 0f 1a 1e 3e
       -0.2174444 0.036594987 0.12473648 0.15439628
0000f0 bc 74 87 bc 7a cd f9 bd b8 00 35 3e 1a 59 f4 3d
       -0.016535155 -0.12197395 0.17676055 0.11931057
000100 b9 e5 b2 3d cc 9d 02 be c1 04 54 be a9 70 64 bd
       0.08735222 -0.12755507 -0.20704938 -0.055771504
000110 a7 ce 3f bd 03 2c ed 3c ae 51 bc bd 9b ed 11 3d
       -0.04682794 0.02895165 -0.09195267 0.03562699
000120 43 b4 2f 3e 33 19 42 be e8 df 7a be 05 43 d0 be
       0.17158608 -0.18954925 -0.24499476 -0.40676132
000130 7d bf fd bd fe 38 7e 3b f7 8b 2a be 3f f2 c6 bc
       -0.12390039 0.0038791294 -0.16654955 -0.024285434
000140 5f 88 30 be 07 ae af bd b4 c4 3f 3e ed cc 91 bd
       -0.17239521 -0.08578115 0.1872738 -0.071191646
000150 be 9a 90 bc 7e e4 39 be 95 fc 50 3c 87 8b 32 3d
       -0.017651912 -0.18153569 0.012755533 0.043590095
000160 82 5b 7e bd d4 38 04 bd 62 18 9d 3d 30 02 89 bd
       -0.062098987 -0.032280758 0.07670666 -0.0668987
000170 81 87 81 be 57 f9 42 be f9 db 11 3c d5 c4 79 be
       -0.25298694 -0.19040428 0.008902543 -0.24391492
000180 1a 6b 7a 3e 94 9b 5e be 09 24 db bd 16 49 a7 bc
       0.24454919 -0.21739036 -0.107002325 -0.020420592
000190 c5 5e b9 3d 32 b9 dd bc cd 66 e8 3d 1d 21 1a be
       0.09051279 -0.027065847 0.11347733 -0.15051694
0001a0 3f d3 0b 3e d4 8c 02 3b 06 14 57 be 64 5e ef bd
       0.13654803 0.0019920366 -0.21003732 -0.116879255
0001b0 8d a3 78 bb e3 0a 4a 3d d6 34 82 3d e4 87 24 3e
       -0.003793928 0.04932679 0.06357734 0.16067463
0001c0 89 18 ad be 8d 8a 02 be 4e 42 8d bd 8a 3c 31 be
       -0.3380778 -0.12748165 -0.06897412 -0.1730825
0001d0 49 d8 a4 bc ab f9 8c be 22 1f c9 3d 15 41 83 3e
       -0.020122664 -0.27534232 0.09820391 0.2563559
0001e0 76 19 85 bc 96 46 3d be 47 8d 71 be 64 16 eb bd
       -0.016247492 -0.18483958 -0.2358905 -0.1147888
0001f0 55 e5 39 3c 88 a7 78 bd db fe b7 3d fc f7 ab 3e
       0.011346181 -0.060706645 0.08984157 0.33587635

fc2.weight f4 [32, 128]
000000 28 88 03 3f 66 b1 9b 3c 8d d3 e0 3d 5b da 45 3d
       0.5137963 0.019005489 0.1097785 0.048303943
000010 1c 23 8d bd 98 ef a2 bd e9 3f 1d 3f 03 6f 42 3b
       -0.06891462 -0.07955855 0.61425644 0.002966822
000020 70 5f 09 3d 71 e3 98 be 8d 83 57 bd 8d 00 8e be
       0.033538282 -0.29861024 -0.05261569 -0.27734795
000030 0f 10 5f be 94 8c 25 bc dc 1c d2 3c 27 a7 fc 3e
       -0.2178347 -0.010104317 0.025648527 0.49346277
000040 bf e5 66 be fe 40 c1 3b 71 5e d3 3d 43 5e b7 be
       -0.22548579 0.0058976403 0.10320748 -0.35814103
000050 18 d4 10 3d 76 8e 2c 3c b2 12 35 bd d9 7a 33 3d
       0.03535852 0.010532012 -0.044207282 0.04381833
000060 65 20 b2 bd 9d 4f db bd 0b a9 88 3d b8 d2 0b 3c
       -0.08697585 -0.107085444 0.066728674 0.008534126
000070 8e aa 3f 3e 4b 01 3c 3e 3e 30 1b 3d 89 55 66 3d
       0.18717405 0.18359868 0.037887804 0.056233916
000080 a6 8e 0c 3e 0e 48 d3 3a 93 1b 4c 3e 72 25 cc be
       0.13726291 0.0016119496 0.19932394 -0.39872319
000090 50 be 91 3c 01 a4 98 3d 4a cf 44 bd 37 fd 73 bd
       0.017790943 0.07453156 -0.04804925 -0.059567656
0000a0 0f af 60 3d b7 09 2a bd 86 32 04 3b db 59 55 bc
       0.05485445 -0.04151317 0.0020171716 -0.0130219115
0000b0 c0 b8 cb 3d 7a 23 8a 3d 59 44 0c 3e f6 dc f4 3e
       0.09947348 0.06745048 0.13697948 0.4782483
0000c0 ce 3c 15 3f 81 94 9e 3b 23 54 8e 3e 57 01 9f bd
       0.58295906 0.0048394804 0.27798566 -0.077639274
0000d0 34 0c b9 3d c9 f9 fe 3b ac bc eb 3e 7e 34 ba bd
       0.09035531 0.0077812416 0.46042383 -0.09092043
0000e0 5d e3 8e bc 27 ee 0c 3d f7 b0 3e 3b b6 c8 8a 3e
       -0.0174424 0.034406807 0.0029097178 0.27106255
0000f0 00 81 eb 3b 0d d1 4b 3d 72 5a 4c 3d 26 e3 15 bb
       0.007187009 0.049759913 0.049890943 -0.0022870987
000100 4f 85 90 bc 67 d1 3a be e8 c1 8e 3d 72 b1 b4 3c
       -0.017641691 -0.18243943 0.069705784 0.022057269
000110 17 18 7c 3d 44 b3 8c 3d b3 42 05 3e dd 68 68 3d
       0.06154641 0.0687013 0.13013725 0.05674063
000120 f6 a5 e9 3c 74 e1 28 3d ee ff 99 3d 50 20 a1 3d
       0.02852152 0.041230634 0.07519518 0.07867491
000130 d3 94 5b be 67 74 1c 3e 05 4d a2 3d 1d e4 8c bd
       -0.2144349 0.15278779 0.079248466 -0.06879447
000140 be 97 bd 3d 49 f8 61 3a ef 62 bc 3d 13 ba 4f be
       0.09257458 0.0008620066 0.091985576 -0.20285825
000150 14 07 63 bd cd 20 81 3d f3 2b 7a bd 1f b1 c3 3c
       -0.055426672 0.063050844 -0.06107707 0.023888169
000160 6f 2a 9c bd fa d0 29 be e1 35 c0 3b 0f 9b 00 bd
       -0.07625281 -0.16583624 0.005865798 -0.031397875
000170 f2 78 d8 3c b3 82 66 bd 1e c0 92 be a6 c1 61 3d
       0.026424859 -0.05627699 -0.286622 0.05511632
000180 0f d1 89 be 51 c8 36 3f 1b 53 5b 3c 67 a2 93 be
       -0.26917312 0.7139941 0.013386513 -0.2883484
000190 f4 a5 1f 3d d2 6e 03 3e ef 42 0e 3d e4 6f ac bd
       0.038976625 0.12835243 0.0347318 -0.08419779
0001a0 26 8b c0 bd 0d 5a 04 be d6 4a b1 3d 28 ff 61 3e
       -0.094015405 -0.12924977 0.08656852 0.2206999
0001b0 ec c5 ad 3e f5 ef 77 3d f5 8d f7 bd 35 a1 c4 3e
       0.33940065 0.060531575 -0.12087623 0.3840424
0001c0 2b 27 95 be ef 20 8d be e5 92 cf 3d 82 d7 65 3e
       -0.29131445 -0.2756419 0.1013544 0.22445491
0001d0 2b ef c3 3d fa c9 2e 3e 95 5d a1 bd ff 48 c0 be
       0.09567102 0.17069235 -0.078791775 -0.37555692
0001e0 da 57 99 3e 41 69 5c 3d 70 32 ed 3d e7 0f 9c bb
       0.29949838 0.053811315 0.11581886 -0.004762638
0001f0 66 97 03 3d af fb ef 3e 63 8b 23 3f 17 57 f3 bd
       0.032126807 0.46871707 0.6388456 -0.118818454
000200 4b 65 03 3d f1 b3 c5 3c 0e 25 48 bd 16 d6 c3 3c
       0.032079022 0.024133654 -0.048863463 0.023905795
000210 c7 d1 2d bd 40 72 40 bb 83 61 3b bd b5 b5 ab bd
       -0.042436387 -0.0029364973 -0.04574729 -0.08384267
000220 73 7f 69 3c 1e 89 c6 3c 9c 47 36 bd 1f 39 0c 3d
       0.014251578 0.024235304 -0.044501886 0.034234162
000230 4d 39 c0 bd 97 7f ae bd e1 9c 5f bd 04 a0 84 bd
       -0.09385929 -0.085204296 -0.05459297 -0.06475833
000240 65 2e 7e bd 25 ed 8b bc 30 a5 b2 39 11 0c c8 bd
       -0.062055964 -0.017080853 0.0003407388 -0.097679265
000250 bb 3c 55 3c 0e a1 c8 3a 2f 40 bf 3c 9d f2 b3 3d
       0.013014968 0.0015306787 0.023346035 0.08786509
000260 ef d0 5e 3d a7 74 78 bd 14 c4 a4 bd c1 4c af bc
       0.054398473 -0.060658123 -0.080452114 -0.021398904
000270 bd 9b 35 bd 44 3c 42 3b 19 67 54 3a 1e 99 91 3d
       -0.044337977 0.0029637972 0.0008102521 0.07109283
000280 03 1d 1a 3c ba f8 08 bd f7 a2 be bd b1 ee ae bb
       0.009406331 -0.03344033 -0.09308427 -0.005338513
000290 8e b2 33 bc 1d 12 92 3d 00 8a 8d bd b4 75 30 3d
       -0.010967864 0.07132361 -0.06911087 0.043081
0002a0 83 c7 66 bd 72 96 9e bd b9 bc ed bc 58 6c 30 3d
       -0.056342613 -0.07743539 -0.029020654 0.043072075
0002b0 a6 d2 46 bc a6 b3 b5 3c 5d 4a 3a bd 73 14 68 bc
       -0.012135183 0.02218039 -0.045481075 -0.014165032
0002c0 83 c3 12 bd 23 f4 01 bc 12 1c 38 bc 6b 0a 9a 3d
       -0.035830986 -0.007931742 -0.011237161 0.07521518
0002d0 59 49 7a 3c 14 12 ec bd 49 5e 96 bd c9 c0 c2 bd
       0.0152762765 -0.11526886 -0.07342202 -0.09509427
0002e0 a0 e1 65 bc 18 fa ca bd af 6f d1 3b ac 7e 95 bd
       -0.014030844 -0.09910983 0.0063914875 -0.07299551
0002f0 d8 82 67 3d 64 75 34 3d 69 36 79 bd 55 6c aa bd
       0.056521267 0.044057265 -0.060842905 -0.08321444
000300 b8 03 62 3b a6 76 76 bd a4 90 d4 3c af 11 75 bd
       0.003448708 -0.060171746 0.025947876 -0.059831318
000310 85 32 14 3d 4f e8 91 bd 6c 85 b8 bd db 6d 78 bd
       0.03618099 -0.071243875 -0.09009823 -0.06065164
000320 f8 2f 2f 3d 1e ce 26 bd fa f6 ad bd a7 d3 71 bd
       0.042770356 -0.040723912 -0.08494373 -0.059039738
000330 63 db 80 bd 10 3e c2 bd 82 6e 39 3c 13 02 01 3d
       -0.06291845 -0.09484494 0.011317851 0.03149612
000340 c0 c3 04 bd 94 f3 45 bd 13 cf b9 bc 7c e1 e4 bd
       -0.032413244 -0.048327997 -0.022681748 -0.1117582
000350 26 72 5c bd ae 1b 04 bb ed db 63 3d b6 a6 92 bd
       -0.053819798 -0.00201581 0.05562966 -0.07160704
000360 15 6e bd 3c b3 9c 5b bd 6f bf c0 bc 03 52 ac bd
       0.02312378 -0.053616237 -0.023528783 -0.0841408
000370 c8 97 fd 3c 76 43 b0 3d 85 11 a4 bd 47 07 66 3d
       0.030956164 0.08606617 -0.08011154 0.056159284
000380 f1 eb 66 3d 85 97 a9 3c f7 74 3a 3d c0 8b cf bd
       0.056377355 0.020702133 0.045521703 -0.10134077
000390 8a 87 ba bd f3 dc c2 bd c8 62 8d 3c d7 93 9c bd
       -0.09107883 -0.09514799 0.017259017 -0.07645386
0003a0 ac 2e af bd de b0 82 bd c6 d7 a6 bd f3 77 48 bc
       -0.08553824 -0.06381391 -0.08146624 -0.012235629
0003b0 1d fd f1 ba 7d dd 53 bd 26 eb 25 3d b7 98 43 bd
       -0.0018462274 -0.0517249 0.04050746 -0.047753062
0003c0 18 c4 19 bd 7e 21 d7 3c 19 6a 9b 3d a4 39 50 bd
       -0.037540525 0.026261088 0.07588596 -0.05083622
0003d0 a1 22 e8 bd f3 bc a4 bd 2c 68 38 3c b5 88 8e 3c
       -0.1133473 -0.08043852 0.011255305 0.017399171
0003e0 2d 2c 7e bc b3 de 1f bd 2f d3 ba bd 24 6b 9e bd
       -0.015513462 -0.039030742 -0.09122311 -0.07735279
0003f0 e9 0c 17 bd 37 98 58 bc 72 9e 22 bd 93 d6 01 be
       -0.036877546 -0.013219885 -0.039701886 -0.1267951

fc2.bias f4 [32]
000000 6f 3b d2 bc 9e 0a 29 bd 79 48 c4 3c b0 44 33 3d
       -0.025663106 -0.04126989 0.023960339 0.043766677
000010 cb bc 4f 3c c9 0f 3c bd 08 0e 6e 3e 7d d0 16 bd
       0.012679289 -0.04591349 0.2324754 -0.036819924
000020 a5 4d 82 3e 0c 6e 8d 3d 9f 9c 3b bd 3a d1 9e 3d
       0.25449863 0.069057554 -0.045803662 0.077547505
000030 4e 46 dc 3c b1 c6 18 bd d4 2c 97 3e b9 d4 59 bb
       0.026888993 -0.037298862 0.2952639 -0.0033238365
000040 36 34 13 bd fb 13 63 3e 43 7e b1 bd ce d4 0c 3d
       -0.035938464 0.2217559 -0.08666661 0.034382634
000050 8a 2f 09 3d 70 36 46 3e e4 5c be 3b 2f 5d b3 3d
       0.033492602 0.19356704 0.0058094133 0.08758008
000060 b0 e5 0f bc 11 25 dd 3c 88 2b a4 bd de e9 c5 3c
       -0.008782789 0.026995214 -0.080161154 0.024159368
000070 41 bf 87 3e 7a bb 46 bc 72 3d 81 3e bd 98 1e 3d
       0.26513103 -0.012129659 0.25242192 0.03871988

fc3.weight f4 [2, 32]
000000 9d 2a ed 3e 7c ea 36 3d 7d 02 cf 3e 88 3b 26 3f
       0.46321574 0.044657215 0.40431586 0.6493459
000010 28 25 4f 3e b7 28 7b 3e c1 37 10 bf 93 f0 93 3e
       0.20229018 0.2452725 -0.56335074 0.2889448
000020 be 2c 45 bf ca de 18 3f 2e 1d be 3e 5e 78 a4 3e
       -0.77021396 0.5971495 0.37131637 0.32123083
000030 d7 fc af 3e 02 b2 e7 bc c2 08 7f bf fb 5d 19 3f
       0.3437259 -0.028283123 -0.9962274 0.5990903
000040 74 d8 b2 bd 22 e6 1a bf ec 83 15 be 91 fc 07 3f
       -0.087326914 -0.60507405 -0.14601105 0.5311976
000050 a6 17 99 3e fa 17 f7 be 5a 76 26 3f 89 3f 43 be
       0.29900855 -0.4826048 0.6502434 -0.19067205
000060 df f5 e1 3e 6b 2e 1d 3f 9b ee 9a 3e d7 0c 03 3f
       0.44132897 0.61398953 0.30260167 0.5119147
000070 77 5c 5b bf 07 ff ad 3e 3e 48 18 bf 71 f0 e4 3e
       -0.85687965 0.33983633 -0.5948523 0.44714692
000080 a7 86 27 bf 41 28 a3 bd e9 c8 ce be c6 8f 25 bf
       -0.6543984 -0.07966662 -0.40387657 -0.64672506
000090 b9 ec c7 be 93 e2 a5 be 95 6e be 3e f7 ce f0 be
       -0.39047793 -0.32399425 0.37193742 -0.47032902
0000a0 cd fe 49 3f e6 95 df be 72 95 bf be 27 4c 2b bf
       0.7890442 -0.4366905 -0.37418705 -0.66913074
0000b0 bd ed 03 bf 0b f2 b1 3c 3e 62 84 3f 9e 79 ee be
       -0.51534635 0.02172186 1.0342481 -0.46577162
0000c0 1a 35 65 3d e9 a8 d5 3e 40 c8 19 bd 1a 27 0f bf
       0.055958845 0.4173043 -0.03754449 -0.5591904
0000d0 65 1a 1a bf f7 98 ba 3e ba f7 da be 77 3c c1 3e
       -0.60196525 0.36444828 -0.42767125 0.37741444
0000e0 09 cc 00 bf 74 b6 0a bf fa e0 87 be e5 cf ed be
       -0.5031133 -0.5418465 -0.2653883 -0.46447673
0000f0 b1 00 41 3f 8e cd d7 be a9 0c 18 3f b5 8f 1b bf
       0.7539168 -0.42149013 0.5939432 -0.60766155

fc3.bias f4 [2]
000000 a5 8c c3 be 33 3b d1 3e
       -0.3819324 0.40865478
