frontend/assets/models/phoneme_models/P_model.onnx (onnx, 25849 bytes, 6 tensors)

fc1.weight f4 [128, 15]
0.5832539 -0.14319351 -0.037391696 0.6139208 0.27690047 0.004795541 0.32127202 -0.04142865
0.56108475 -0.54195094 -0.21683842 0.0010177789 0.22071399 -0.5277309 0.65824264 -0.03645536
0.19904186 0.038164094 -0.12053754 0.06581446 -0.118961684 -0.03027972 -0.10486963 0.17128165
-0.2038145 -0.11903235 -0.07290884 -0.15524788 0.024369616 -0.25501764 0.32864773 -0.50641775
0.15847334 0.12340317 -0.021261413 0.011271258 0.5591035 1.6728088 0.090802744 -0.32430232
0.2433106 -0.21830025 0.0630987 0.24501592 0.071931 -0.05833108 0.34343103 -0.070872575
0.2144873 -0.5079822 -0.49869877 0.060746245 0.633346 -0.13874327 0.30957094 0.49379188
-0.1614444 -0.15682799 0.5474308 -0.10503163 0.28953212 -0.32268387 -0.04061261 0.13443641
0.9905737 0.12441349 0.3512332 -1.3525223 0.7574668 -0.33495072 -0.1384515 0.2642544
0.15034662 -0.51637155 0.22891262 -0.20200546 -0.17368758 0.10458092 0.09245479 0.21454376
-0.13334046 -0.17601722 0.13699469 -0.10436515 0.15670705 -0.06127076 0.14770162 -0.20061228
-0.1303 0.07871876 0.3835222 -0.46296784 0.18609354 0.49754062 0.081137635 0.0713408
0.6977912 0.7361005 0.17684153 -0.6119993 0.120391496 0.27368376 -0.02217984 -0.22306803
0.120870404 -0.17637089 -0.21905507 -0.14218047 -0.22597878 -0.16440506 0.2580979 0.048767306
0.07956649 -0.24081805 -0.16957827 -0.085943006 0.04037485 -0.22719471 -0.11125094 -0.15457556
0.00071553583 -0.09607664 -0.017892089 -0.17496324 -0.17722647 -0.1506337 -0.08838081 -0.20379145
0.21649198 -0.051243193 0.22215348 0.08045015 -0.21864204 0.17868271 -0.07104208 0.16419587
-0.35139164 -0.40981534 0.28026345 0.2884918 0.09760576 0.085860126 0.521787 0.15536073
-0.25359714 0.49733433 0.13037811 0.15149854 0.8767235 -0.3055678 0.06498021 -0.11105804
-0.028294675 -0.19325931 0.23518269 -0.1895052 0.13799472 0.090741314 0.08390326 -0.13959424
0.23469026 0.05673931 0.033214718 -0.227539 0.108388916 -0.6709939 -0.34350255 0.18429431
-0.5567982 -0.32191777 0.028298832 -0.49651197 1.1299129 -0.24503987 -0.40246794 -0.08019942
-0.033911172 0.094849735 -0.015466913 -0.44317916 0.22752124 -0.23222053 0.02852321 0.07305885
0.19813314 -0.024183705 0.5687347 0.54012954 -0.0050039445 -0.3919219 -0.12355897 -0.23681346
0.2144993 0.11829984 0.0020316213 -0.05780992 0.003767713 -0.015416601 0.062073924 0.07235601
-0.23451088 -0.09528513 0.2174369 0.10058266 -0.012842186 -0.1556696 -0.15796739 -0.231286
-0.08416314 0.087194845 0.1646332 0.11920974 -0.22823337 -0.15527111 -0.040748082 0.24976857
0.037350405 -0.06686596 0.106820814 -0.09834319 -0.1671207 0.18845607 -0.11740349 -0.051760294
-0.25685737 0.39553112 0.31425926 0.006550043 0.048163626 -0.398226 -0.50605243 0.52388704
0.64566934 0.07387797 0.31100047 0.5739459 -0.29887673 -0.34084207 0.045028348 0.056908477
-0.21871758 0.17662576 -0.10798546 -0.49010238 0.12431774 0.011256647 -0.7178479 -0.57850397
0.094631284 0.4178965 0.01399424 0.003579655 -0.090633735 -0.094114035 0.0058463546 -0.042151812
00000000: 2150 153f 52a1 12be 0928 19bd ea29 1d3f
00000010: e6c5 8d3e ea23 9d3b c47d a43e 17b1 29bd
00000020: 40a3 0f3f 4cbd 0abf e40a 5ebe fe66 853a
00000030: d902 623e 5f19 07bf 9782 283f 3752 15bd
00000040: a1d1 4b3e f451 1c3d 63dc f6bd bbc9 863d
00000050: 2fa2 f3bd 2d0d f8bc e3c5 d6bd 7564 2f3e
00000060: c0b4 50be 3cc7 f3bd 3b51 95bd 4df9 1ebe
00000070: caa2 c73c ac91 82be 8444 a83e 98a4 01bf
00000080: d646 223e cdba fc3d 6a2c aebc 15ab 383c
00000090: 6821 0f3f 991e d63f caf6 b93d f40a a6be
000000a0: 6a26 793e 1a8a 5fbe e439 813d 74e5 7a3e
000000b0: 8f50 933d 92ec 6ebd 31d6 af3e a425 91bd
000000c0: 8fa2 5b3e 1f0b 02bf 7255 ffbe 0ed1 783d
000000d0: f722 223f b712 0ebe 1580 9e3e 4ad2 fc3e
000000e0: ae51 25be 8497 20be 6d24 0c3f d31a d7bd
000000f0: 8e3d 943e d236 a5be 6859 26bd b3a9 093e
00000100: 3d96 7d3f 80cc fe3d d7d4 b33e 731f adbf
00000110: 58e9 413f a97e abbe 3bc6 0dbe 5a4c 873e
00000120: 77f4 193e ed30 04bf 1268 6a3e 85da 4ebe
00000130: 28db 31be 852e d63d f058 bd3d 5cb1 5b3e
00000140: 678a 08be dc3d 34be 5648 0c3e 65bd d5bd
00000150: d077 203e 0cf7 7abd 183f 173e 4e6d 4dbe
00000160: 5d6d 05be 4d37 a13d 065d c43e 1f0a edbe
00000170: 4e8f 3e3e a5bd fe3e 7d2b a63d 201b 923d
00000180: 72a2 323f 1571 3c3f f215 353e fcab 1cbf
00000190: d18f f63d 4720 8c3e 7fb2 b5bc f26b 64be
000001a0: e78a f73d 929a 34be f94f 60be c297 11be
000001b0: fb66 67be cd59 28be 6825 843e 3ac0 473d
000001c0: c2f3 a23d 0299 76be eda5 2dbe e302 b0bd
000001d0: 1960 253d bba5 68be 88d7 e3bd 0e49 1ebe
000001e0: cc92 3b3a d4c3 c4bd 6e92 92bc 9029 33be
000001f0: db7a 35be b83f 1abe 0001 b5bd b5ae 50be
00000200: 13b0 5d3e 62e4 51bd 347c 633e 0cc3 a43d
00000210: b3e3 5fbe 9af8 363e 837e 91bd f622 283e
00000220: 9be9 b3be 51d3 d1be b17e 8f3e 32b5 933e
00000230: 87e5 c73d 6fd7 af3d d593 053f e216 1f3e
00000240: 7cd7 81be 9ba2 fe3e d781 053e 6f22 1b3e
00000250: f470 603f 6273 9cbe 5814 853d 6672 e3bd
00000260: 3cca e7bc c5e5 45be bbd3 703e a70d 42be
00000270: 7d4e 0d3e 95d6 b93d 79d5 ab3d cbf1 0ebe
00000280: a552 703e 7b67 683d 280c 083d fcff 68be
00000290: 02fb dd3d 42c6 2bbf 91df afbe a6b7 3c3e
000002a0: 548a 0ebf 68d2 a4be f4d2 e73c d136 febe
000002b0: fca0 903f bbeb 7abe 4710 cebe 983f a4bd
000002c0: 71e6 0abd 9440 c23d ef68 7dbc 61e8 e2be
000002d0: 54fb 683e 38cb 6dbe 82a9 e93c e19f 953d
000002e0: 6ae3 4a3e e81c c6bc 9998 113f ee45 0a3f
000002f0: 21f8 a3bb fda9 c8be 7c0c fdbd 3a7f 72be
00000300: b4a5 5b3e 3047 f23d f324 053b 18ca 6cbd
00000310: bceb 763b e995 7cbc 3a41 7e3d 632f 943d
00000320: 9f23 70be da24 c3bd c7a7 5e3e 48fe cd3d
00000330: 0868 52bc da67 1fbe 34c2 21be 3dd6 6cbe
00000340: b95d acbd 3693 b23d 9b95 283e 3c24 f43d
00000350: 02b6 69be 64ff 1ebe 76e7 26bd 55c3 7f3e
00000360: bdfc 183d 05f1 88bd dfc4 da3d 2868 c9bd
00000370: b021 2bbe a1fa 403e 3e71 f0bd 9a02 54bd
00000380: cf82 83be 0e83 ca3e 97e6 a03e bea1 d63b
00000390: 3947 453d 47e4 cbbe a78c 01bf 761d 063f
000003a0: 964a 253f 554d 973d 743b 9f3e 1eee 123f
000003b0: 5f06 99be da82 aebe a56f 383d dd18 693d
000003c0: 80f7 5fbe 62dd 343e 7b27 ddbd b3ee fabe
000003d0: 4d9a fe3d cd6d 383c e1c4 37bf d618 14bf
000003e0: 0cce c13d 88f6 d53e 1948 653c a598 6a3b
000003f0: 2e9e b9bd dcbe c0bd c792 bf3b 61a7 2cbd

fc1.bias f4 [128]
-0.3118524 -0.1929975 -0.20268299 -0.05006032 0.09204891 -0.014497611 -0.088024616 -0.10729627
0.20944898 0.08355876 -0.23123491 -0.21031839 -0.4106766 0.109689824 -0.22558403 -0.111313455
0.38942957 -0.17545874 0.0065468103 -0.113618895 0.20646478 -0.13103318 0.1695924 0.031152664
0.019858697 0.29305556 -0.38310912 -0.20796663 0.28425685 -0.3434966 -0.18611173 -0.012624542
-0.1045292 0.062396783 -0.23174585 0.19171533 -0.22217539 0.020912286 0.10008419 0.049609315
0.034306847 0.037765224 -0.22287594 -0.04918643 -0.21583794 -0.17442071 -0.17968404 0.30008337
-0.04510342 0.09044604 0.13496716 -0.020169942 -0.14694539 -0.29981652 -0.088976584 0.09182471
-0.2174444 0.0022742755 -0.062025942 0.18258397 0.03052945 0.02508608 0.17676055 0.11931057
0.08735222 -0.24364741 -0.20704938 -0.129134 -0.04682794 -0.08708006 -0.15586591 0.024786277
0.17158608 -0.28545684 -0.24499476 -0.23991461 -0.20034201 0.03431228 -0.16654955 -0.024285434
-0.09232702 -0.2876978 0.011188924 -0.16247562 -0.005208227 -0.18153569 0.014513138 -0.003155191
-0.16841424 0.034474347 0.07670666 -0.062065948 -0.3696596 -0.19040428 0.0824676 -0.25273576
0.2780878 -0.18490706 -0.107002325 0.09224058 0.062838525 -0.12742943 0.07383453 -0.15051694
0.15408297 -0.096594326 -0.21003732 -0.20831169 -0.05993293 0.04932679 0.20854971 0.13440853
-0.24209121 -0.1630778 -0.054748848 -0.18497898 -0.06419581 -0.31520197 0.09820391 0.32588464
-0.0396867 -0.18483958 -0.29992992 -0.10051661 -0.06697705 -0.0951192 0.046946224 0.15986304
00000000: 1eab 9fbe 23a1 45be 218c 4fbe 0d0c 4dbd
00000010: 2484 bc3d 6387 6dbc 4046 b4bd 26be dbbd
00000020: cb79 563e db20 ab3d d8c8 6cbe b45d 57be
00000030: 3444 d2be 0fa5 e03d 80ff 66be 4ff8 e3bd
00000040: 5063 c73e 75ab 33be a086 d63b 06b1 e8bd
00000050: 816b 533e 902d 06be a1a9 2d3e df33 ff3c
00000060: b5ae a23c 610b 963e e126 c4be 34f5 54be
00000070: 1d8a 913e c9de afbe 1394 3ebe 2bd7 4ebc
00000080: 6813 d6bd c593 7f3d c94e 6dbe 0651 443e
00000090: f281 63be 3e50 ab3c f1f8 cc3d 2333 4b3d
000000a0: 5685 0c3d b5af 1a3d 9739 64be b677 49bd
000000b0: 9f04 5dbe 589b 32be 18ff 37be 87a4 993e
000000c0: 5dbe 38bd c63b b93d d534 0a3e 6f3b a5bc
000000d0: da78 16be 8d81 99be 5b39 b6bd 980e bc3d
000000e0: bfa9 5ebe 030c 153b ea0e 7ebd 4bf7 3a3e
000000f0: e618 fa3c 5381 cd3c b800 353e 1a59 f43d
00000100: b9e5 b23d b57e 79be c104 54be b43b 04be
00000110: a7ce 3fbd 0857 b2bd 509b 1fbe 970c cb3c
00000120: 43b4 2f3e 6627 92be e8df 7abe 2dac 75be
00000130: 7526 4dbe 098b 0c3d f78b 2abe 3ff2 c6bc
00000140: f315 bdbd 204d 93be c051 373c 0260 26be
00000150: c6a9 aabb 7ee4 39be 83c8 6d3c 52c7 4ebb
00000160: c874 2cbe f934 0d3d 6218 9d3d dd38 7ebd
00000170: 0644 bdbe 57f9 42be c6e4 a83d 9566 81be
00000180: 8661 8e3e 4758 3dbe 0924 dbbd a1e8 bc3d
00000190: 7cb1 803d dc7c 02be 8f36 973d 1d21 1abe
000001a0: edc7 1d3e 3fd3 c5bd 0614 57be a94f 55be
000001b0: 3b7c 75bd e30a 4a3d 0e8e 553e 64a2 093e
000001c0: c2e6 77be defd 26be 5440 60bd 216b 3dbe
000001d0: 1879 83bd 2762 a1be 221f c93d 5ada a63e
000001e0: 858e 22bd 9646 3dbe 6a90 99be a7db cdbd
000001f0: 432b 89bd dbcd c2bd af4a 403d 23b3 233e

fc2.weight f4 [32, 128]
-2.023825 0.019005489 0.49525237 -0.53772926 0.0766006 -0.07955855 -2.3919573 0.002966822
0.033538282 0.031097688 -0.05261569 -0.15905236 0.22988372 -0.010104317 0.025648527 -0.22278184
0.07718667 -0.30210105 -2.6227143 -1.2266152 0.03535852 0.010532012 -0.044207282 0.04381833
-0.08697585 -0.07513813 -0.4695871 0.008534126 -0.17332497 0.26142013 0.037887804 0.056233916
-0.22373363 -0.12542045 -0.03744256 -0.031856533 0.017790943 0.069133095 0.43539762 -0.059567656
0.05485445 -0.04151317 -0.5886837 -0.0130219115 0.4443044 0.06745048 -0.47022024 -0.5005555
-0.14732908 0.0048394804 0.22890103 -0.077639274 0.25557292 0.5955018 0.07417938 -0.35426128
-0.0174424 -0.11156931 0.27748054 0.12001656 -0.009217065 0.021408461 0.049890943 -0.0022870987
-0.017641691 0.7664507 0.069705784 -0.15889588 0.06154641 0.06689381 -1.2990732 0.5567155
0.02852152 -2.309258 0.07519518 0.033944312 -0.07573724 -0.54586834 0.079248466 -0.06879447
0.10067843 -0.10130741 0.25468743 -0.2014551 -0.058021337 0.063050844 -0.10892334 -0.14589761
-0.08745491 -0.2986706 0.005865798 -0.027036529 -0.6194877 -0.05627699 -0.07872923 0.04956142
-0.07768163 0.12948559 0.013386513 0.012129447 0.02623895 0.18937881 0.026710156 -0.08419779
-0.6406763 0.14740312 0.08656852 0.78037405 0.50256073 0.060531575 -0.03425673 0.061469436
-0.42097282 -0.0647307 0.06880433 0.030031431 -0.2778826 -1.9641148 -0.078791775 -0.015177575
0.52794206 0.053811315 0.22899176 -0.02592675 0.41306317 0.6439317 0.046083953 0.7445712
0.042500906 0.024133654 -0.060324617 0.040349025 -0.04342161 -0.0029364973 -0.040856525 -0.08384267
0.014251578 0.05358994 -0.044501886 0.057363108 -0.085004844 -0.085204296 -0.05459297 -0.04685518
-0.06571718 -0.0071781636 0.02731757 -0.08026876 0.013014968 0.0015306787 0.023346035 0.08786509
0.054398473 -0.0882842 -0.08282481 -0.021398904 -0.03983629 0.024586357 0.0008102521 0.07109283
0.016209308 -0.08643319 -0.028260922 -0.037867248 -0.010967864 0.07132361 -0.07436585 0.043081
-0.056342613 -0.07743539 -0.022357913 0.043072075 0.03708252 0.02218039 0.005468692 -0.030797716
-0.012794996 -0.007931742 -0.048659343 0.07521518 0.014108798 -0.08573893 -0.07611369 -0.038099024
-0.014030844 -0.09089911 0.0027988933 -0.13994865 0.031042736 0.010650796 -0.060842905 -0.08321444
0.003448708 -0.03523317 0.025947876 -0.07119596 0.03618099 -0.087050855 -0.054400653 -0.057683516
0.042770356 -0.0058539454 -0.08494373 -0.06795014 -0.07586874 -0.104386635 0.011317851 0.03149612
-0.029587703 -0.051559094 -0.017304827 -0.1287648 -0.053819798 -0.00201581 0.029336806 -0.03186983
0.024194362 -0.060844008 -0.023528783 -0.0841408 0.05905564 0.08606617 -0.067582324 0.056159284
0.007600675 0.022907045 0.045521703 -0.11991074 -0.10862641 -0.0942821 0.010539365 -0.07645386
-0.073515005 -0.069426484 -0.08146624 0.007318223 -0.0012369802 -0.0517249 0.015353643 -0.07827761
-0.037109073 -0.025191963 0.07588596 -0.010139952 0.006583102 -0.045304406 0.011255305 0.009316263
0.022677124 -0.039030742 -0.082804136 -0.07735279 -0.04441121 -0.016273987 -0.039701886 -0.08199254
00000000: 5986 01c0 66b1 9b3c b891 fd3e a0a8 09bf
00000010: c6e0 9c3d 98ef a2bd d415 19c0 036f 423b
00000020: 705f 093d 94c0 fe3c 8d83 57bd 9fde 22be
00000030: a366 6b3e 948c 25bc dc1c d23c ec20 64be
00000040: 0b14 9e3d fdac 9abe 8dda 27c0 ba01 9dbf
00000050: 18d4 103d 768e 2c3c b212 35bd d97a 333d
00000060: 6520 b2bd 05e2 99bd b86d f0be b8d2 0b3c
00000070: 1a7c 31be dcd8 853e 3e30 1b3d 8955 663d
00000080: 6e1a 65be 386e 00be 5f5d 19bd ff7b 02bd
00000090: 50be 913c a795 8d3d 70ec de3e 37fd 73bd
000000a0: 0faf 603d b709 2abd fab3 16bf db59 55bc
000000b0: de7b e33e 7a23 8a3d b5c0 f0be 6824 00bf
000000c0: 6fdd 16be 8194 9e3b 0865 6a3e 5701 9fbd
000000d0: 74da 823e ce72 183f 5ceb 973d bc61 b5be
000000e0: 5de3 8ebc 737e e4bd ee11 8e3e 3ecb f53d
000000f0: 2c03 17bc cc60 af3c 725a 4c3d 26e3 15bb
00000100: 4f85 90bc 1d36 443f e8c1 8e3d 9ab5 22be
00000110: 1718 7c3d 9fff 883d 0848 a6bf e884 0e3f
00000120: f6a5 e93c e2ca 13c0 eeff 993d 3109 0b3d
00000130: 201c 9bbd 07be 0bbf 054d a23d 1de4 8cbd
00000140: 7e30 ce3d 427a cfbd 6466 823e 3f4a 4ebe
00000150: c8a7 6dbd cd20 813d 3313 dfbd 2f66 15be
00000160: 8f1b b3bd 5aeb 98be e135 c03b b67b ddbc
00000170: bf96 1ebf b382 66bd ca3c a1bd ea00 4b3d
00000180: 8c17 9fbd df97 043e 1b53 5b3c 97ba 463c
00000190: 11f3 d63c 85ec 413e 42cf da3c e46f acbd
000001a0: 5d03 24bf d8f0 163e d64a b13d 98c6 473f
000001b0: d2a7 003f f5ef 773d c950 0cbd 60c7 7b3d
000001c0: c089 d7be 8791 84bd 49e9 8c3d 7a04 f63c
000001d0: a146 8ebe 1d68 fbbf 955d a1bd 5dab 78bc
000001e0: 3627 073f 4169 5c3d d17c 6a3e 5664 d4bc
000001f0: 047d d33e b5d8 243f 87c2 3c3d 389c 3e3f
00000200: 6e15 2e3d f1b3 c53c f216 77bd 0545 253d
00000210: dcda 31bd 4072 40bb 2c59 27bd b5b5 abbd
00000220: 737f 693c 2081 5b3d 9c47 36bd 94f5 6a3d
00000230: 0517 aebd 977f aebd e19c 5fbd 38eb 3fbd
00000240: bb96 86bd cd36 ebbb 19c9 df3c f363 a4bd
00000250: bb3c 553c 0ea1 c83a 2f40 bf3c 9df2 b33d
00000260: efd0 5e3d 59ce b4bd 0ea0 a9bd c14c afbc
00000270: 612b 23bd 5469 c93c 1967 543a 1e99 913d
00000280: 62c9 843c e203 b1bd 7383 e7bc b01a 1bbd
00000290: 8eb2 33bc 1d12 923d 1f4d 98bd b475 303d
000002a0: 83c7 66bd 7296 9ebd f127 b7bc 586c 303d
000002b0: d7e3 173d a6b3 b53c b732 b33b 7e4b fcbc
000002c0: 1aa2 51bc 23f4 01bc 054f 47bd 6b0a 9a3d
000002d0: 9628 673c e497 afbd 7fe1 9bbd b90d 1cbd
000002e0: a0e1 65bc 5029 babd a36d 373b b34e 0fbe
000002f0: 564d fe3c ad80 2e3c 6936 79bd 556c aabd
00000300: b803 623b a850 10bd a490 d43c 30cf 91bd
00000310: 8532 143d b847 b2bd 38d3 5ebd 8d45 6cbd
00000320: f82f 2f3d 74d2 bfbb faf6 adbd 7129 8bbd
00000330: 1261 9bbd a9c8 d5bd 826e 393c 1302 013d
00000340: e961 f2bc a12f 53bd dac2 8dbc ebda 03be
00000350: 2672 5cbd ae1b 04bb be53 f03c f089 02bd
00000360: 4133 c63c 9137 79bd 6fbf c0bc 0352 acbd
00000370: 54e4 713d 7643 b03d 9a68 8abd 4707 663d
00000380: 150f f93b 8ea7 bb3c f774 3a3d c393 f5bd
00000390: 8677 debd f916 c1bd 4dad 2c3c d793 9cbd
000003a0: 098f 96bd 792f 8ebd c6d7 a6bd b4cd ef3b
000003b0: 2b22 a2ba 7ddd 53bd d98d 7b3c 0350 a0bd
000003c0: afff 17bd 605f cebc 196a 9b3d 0b22 26bc
000003d0: 10b7 d73b 1d91 39bd 2c68 383c 3da3 183c
000003e0: 60c5 b93c b3de 1fbd 3795 a9bd 246b 9ebd
000003f0: 87e8 35bd 0651 85bc 729e 22bd b4eb a7bd

fc2.bias f4 [32]
0.13620554 -0.058141477 -0.14403692 -0.16888309 -0.25207773 0.06901512 0.24791835 0.07995863
0.12183169 0.2656337 -0.22251156 -0.038716912 0.20696864 0.22577968 0.14912477 -0.1951455
-0.027312277 0.10569057 -0.091902964 0.055952437 0.082531996 0.095411316 -0.20324618 0.17588118
0.06139409 -0.25450468 -0.06441177 0.231492 0.12985061 0.0319543 -0.048134018 -0.11137399
00000000: 7779 0b3e c225 6ebd 6a7e 13be b0ef 2cbe
00000010: 5510 81be cd57 8d3d 4fde 7d3e 5ac1 a33d
00000020: e582 f93d 2401 883e 12da 63be a095 1ebd
00000030: 96ef 533e ca32 673e 2ab4 183e 39d4 47be
00000040: ffbd dfbc 4c74 d83d 9f37 bcbd 622e 653d
00000050: 8906 a93d 0267 c33d c41f 50be 321a 343e
00000060: 5f78 7b3d 704e 82be 51ea 83bd 3d0c 6d3e
00000070: 8ff7 043e 83e2 023d 2d28 45bd 0c18 e4bd

fc3.weight f4 [3, 32]
0.5260371 0.04636119 0.7192798 0.60988003 0.30159426 0.46910036 -1.8172735 0.05601375
-1.3330148 0.38798577 0.74513274 -2.4587827 -1.3095891 0.07229591 -1.2066567 0.6050389
-0.11807108 0.3016626 -0.14388543 -0.0005383865 0.26653433 -1.1514931 0.693277 0.37525082
0.48302892 1.406543 0.33936408 0.43210483 -1.3601037 0.34341627 -2.166402 -1.5720143
0.66852504 -0.04527352 -0.3625448 -0.08839365 0.031179372 -2.716998 0.1579491 -2.360176
0.28346255 0.41334322 -0.13830529 -1.8323381 0.104254186 1.2732233 0.31301153 0.053414788
0.07808289 -0.097468056 -0.03966891 -2.1663148 -0.09728987 0.25874817 -0.028938213 0.4476431
-1.0744632 -0.66059786 0.17971793 0.18412466 0.16083308 -0.8524903 -2.0232606 -1.6751895
-1.8314105 0.038442567 -0.62344706 -0.9144772 -1.0570422 1.8123404 0.31294137 1.5334284
0.3857375 -0.9572999 -1.0775925 2.8126643 0.183945 -1.7243916 0.39381292 -0.9120411
0.017478587 -0.66830623 0.054410733 1.4274381 -0.9100679 0.10837317 -0.6205773 -0.8806144
0.5327347 -1.2330486 -0.8804748 -0.8910726 0.27910328 0.4959709 3.0170918 2.2174747
00000000: 5eaa 063f 3be5 3d3d b922 383f 1921 1c3f
00000010: 906a 9a3e ec2d f03e 6b9c e8bf ad6e 653d
00000020: 3ba0 aabf 12a6 c63e 05c1 3e3f b25c 1dc0
00000030: 9ea0 a7bf e10f 943d ba73 9abf d4e3 1a3f
00000040: 40cf f1bd 8573 9a3e b456 13be 8222 0dba
00000050: 3077 883e 2064 93bf 9a7a 313f e020 c03e
00000060: 914f f73e 9a09 b43f 21c1 ad3e d83c dd3e
00000070: e117 aebf 42d4 af3e 55a6 0ac0 c437 c9bf
00000080: 7524 2b3f ba70 39bd 799f b9be bb07 b5bd
00000090: e26b ff3c 4ce3 2dc0 69bd 213e 200d 17c0
000000a0: 0122 913e b9a1 d33e e79f 0dbe 0e8a eabf
000000b0: 3883 d53d fbf8 a23f 0c43 a03e 77c9 5a3d
000000c0: ece9 9f3d 559d c7bd de7b 22bd e7a4 0ac0
000000d0: e93f c7bd a47a 843e d50f edbc 7a31 e53e
000000e0: 0388 89bf f11c 29bf fa07 383e 2d8b 3c3e
000000f0: 6db1 243e ce3c 5abf 1a7d 01c0 9c6c d6bf
00000100: a96b eabf f475 1d3d 3a9a 1fbf 2e1b 6abf
00000110: 294d 87bf c5fa e73f da39 a03e 6247 c43f
00000120: 637f c53e 9b11 75bf 8dee 89bf b102 3440
00000130: 145c 3c3e ddb8 dcbf d9a1 c93e 877b 69bf
00000140: 412f 8f3c 1e16 2bbf cadd 5e3d 4bb6 b63f
00000150: 36fa 68bf c1f2 dd3d 27de 1ebf f26f 61bf
00000160: 4d61 083f 89d4 9dbf cc66 61bf 551d 64bf
00000170: a0e6 8e3e e6ef fd3e 0818 4140 1beb 0d40

fc3.bias f4 [3]
-0.19089684 0.32404196 0.035814285
00000000: 767a 43be d4e8 a53e 00b2 123d
